create_miraidd/embed_model.pth (torch, 788959 bytes, 3 tensors)

fc1.weight f4 [128, 1536]
-0.10140423 0.21568958 0.13746142 -0.08131916 -0.13468708 0.104746416 0.023911877 0.1261309
-0.054064874 0.14892463 0.035037674 -0.18537264 -0.018016338 0.11599022 -0.04906197 -0.24399385
0.015838057 -0.057366483 0.11412294 0.09051008 0.010909816 -0.11807844 -0.101140596 -0.041013826
0.21744516 0.079914644 0.080335155 0.0045033316 -0.11720935 -0.14859448 0.12585405 -0.05223485
0.011312165 -0.11604684 0.10414374 -0.13519302 0.06268755 -0.026390621 0.029200163 -0.15514696
0.016881531 0.06471296 -0.111144945 -0.095633715 0.015815329 -0.08679433 0.106466085 0.122544415
0.0011971089 0.09852572 0.118295155 0.010423311 -0.060981553 0.105792545 4.9089405e-05 -0.07148213
0.0751529 0.08239054 -0.20874617 0.049727116 0.11806432 0.15714917 -0.023357634 -0.015305598
-0.15495625 -0.07133537 -0.16357091 -0.076395504 0.08794799 0.09249959 0.06299802 -0.023274818
0.017089015 -0.09795042 0.11639818 0.0076114754 0.032468997 -0.07077449 -0.0042595034 -0.117148474
0.02406905 0.20695284 -0.051031902 -0.111460365 0.02421511 0.14073567 0.116652735 -0.068048164
-0.000814746 -0.19942729 -0.046474744 0.111978345 -0.11278075 0.007017591 -0.13626893 0.09949408
0.18077125 0.078972526 -0.14470404 -0.054104835 -0.14578423 0.10165114 0.056488447 0.14545916
-0.043811142 0.10305053 -0.05095181 0.20139603 -0.06775827 -0.027317774 -0.017949613 0.081645824
-0.09067826 0.0019514657 -0.089177825 -0.23500468 -0.06868729 -0.09113562 -0.040456504 -0.12515199
-0.07054353 -0.0038844387 -0.022559464 0.014831189 0.113590844 0.08114061 -0.074634425 -0.047297508
-0.07801074 -0.033644993 -0.12263217 0.089113824 0.09545576 -0.09728333 -0.037245825 0.04877455
0.0223626 -0.06697199 0.025045848 -0.009724907 -0.07285539 0.008820911 -0.11627149 -0.18455032
0.07713656 -0.17103228 0.08321426 0.05882563 0.056869116 -0.14026639 0.021666544 -0.0052059386
-0.08768672 0.061257716 -0.08644785 0.0035259917 -0.12735246 -0.022084814 -0.10100131 0.06769351
0.018388852 0.14399573 0.028949697 0.11411864 0.04888911 0.014162432 -0.21854736 -0.1627168
0.09527474 -0.019035926 -0.11730027 0.075663045 0.05484173 -0.11146954 0.06264211 -0.13590065
0.14653772 0.04299779 -0.07399297 -0.08468777 -0.060261812 -0.11058313 0.08330153 -0.123394236
0.017843997 -0.107558586 -0.046360414 0.09403467 0.11243657 -0.016128097 -0.19510189 -0.0049581435
0.112559915 0.11381164 -0.00944299 -0.0904489 0.049336825 0.010777236 0.060615856 -0.042368162
-0.12267809 0.03561306 -0.015645355 0.111059636 -0.069719784 -0.0071305693 -0.10623401 -0.0011625672
-0.08845408 0.03301237 0.20090437 -0.100387454 0.062110405 0.04157186 -0.039576862 0.1242376
0.1582576 -0.06845568 -0.011454213 -0.055408362 -0.02559073 0.11160916 -0.128859 -0.01075697
0.08950462 0.025601264 0.12858677 -0.02110148 0.015774196 -0.12516637 0.085168116 -0.08861727
-0.04906075 -0.017994301 -0.06982191 -0.15737094 0.040567003 0.13529858 -0.10664393 0.053558968
-0.13339598 0.12229626 0.09846963 0.20088093 0.06534158 0.0239785 -0.05640613 -0.18444116
-0.12324038 -0.17310731 0.09991406 -0.0012370058 0.1218465 0.06704956 0.012670761 0.007169406
00000000: 05ad cfbd bbdd 5c3e b0c2 0c3e a98a a6bd
00000010: 69eb 09be 4a85 d63d d7e2 c33c 7528 013e
00000020: 2173 5dbd b37f 183e aa83 0f3d 53d2 3dbe
00000030: 0097 93bc 488c ed3d 34f5 48bd 86d9 79be
00000040: d0be 813c 1ef9 6abd 4ab9 e93d 595d b93d
00000050: 16bf 323c 1cd3 f1bd cd22 cfbd 1dfe 27bd
00000060: f2a9 5e3e 4aaa a33d c286 a43d af90 933b
00000070: 750b f0bd 2729 18be e2df 003e 36f4 55bd
00000080: a956 393c f7a9 edbd 5049 d53d 0a70 0abe
00000090: 5562 803d 2531 d8bc 2e35 ef3c d8de 1ebe
000000a0: 234b 8a3c 3a88 843d f69f e3bd 9cdb c3bd
000000b0: 268f 813c 3ac1 b1bd e40a da3d 91f8 fa3d
000000c0: 4fe8 9c3a dac7 c93d bb44 f23d 89c6 2a3c
000000d0: cbc7 79bd c3a9 d83d 59e5 4d38 3965 92bd
000000e0: c3e9 993d 5fbc a83d 8ec1 55be a9ae 4b3d
000000f0: b5cb f13d b6eb 203e 8258 bfbc 55c4 7abc
00000100: daac 1ebe 4718 92bd 227f 27be 3f75 9cbd
00000110: 131e b43d 6d70 bd3d 1b05 813d d5aa bebc
00000120: 43fe 8b3c 3b9a c8bd 2b62 ee3d af69 f93b
00000130: 36fe 043d 37f2 90bd 4e93 8bbb 8aeb efbd
00000140: 752c c53c 72eb 533e d406 51bd 5545 e4bd
00000150: c45e c63c 031d 103e a1e7 ee3d d65c 8bbd
00000160: ae94 55ba ab36 4cbe 4d5c 3ebd e754 e53d
00000170: 98f9 e6bd d2f3 e53b 158a 0bbe 8dc3 cb3d
00000180: 191c 393e 59bc a13d 4c2d 14be 089d 5dbd
00000190: 7648 15be 792e d03d 6e60 673d 3ff3 143e
000001a0: 5073 33bd 280c d33d d8b2 50bd c33a 4e3e
000001b0: d9c4 8abd 86c9 dfbc 110b 93bc ed35 a73d
000001c0: 86b5 b9bd 53c8 ff3a dda2 b6bd 11a5 70be
000001d0: ecab 8cbd 50a5 babd b8b5 25bd d827 00be
000001e0: 2079 90bd 1192 7ebb a0ce b8bc 84fe 723c
000001f0: 51a2 e83d 0c2d a63d efd9 98bd 08bb 41bd
00000200: 18c4 9fbd 55cf 09bd 9326 fbbd 4f81 b63d
00000210: 4f7e c33d 7c3c c7bd 148f 18bd d3c7 473d
00000220: c531 b73c 9c28 89bd f32c cd3c 3755 1fbc
00000230: 3535 95bd 9585 103c bf1f eebd c2fa 3cbe
00000240: c6f9 9d3d 1623 2fbe 3d6c aa3d 25f3 703d
00000250: 97ef 683d fea1 0fbe 097e b13c 9496 aabb
00000260: 1895 b3bd 5fe9 7a3d 920b b1bd 5314 673b
00000270: af68 02be 36eb b4bc c6d9 cebd e5a2 8a3d
00000280: 38a4 963c 9e73 133e ea27 ed3c 09b7 e93d
00000290: f33f 483d 8c09 683c e1ca 5fbe 3c9f 26be
000002a0: 671f c33d 3bf1 9bbc 203b f0bd 3af5 9a3d
000002b0: b9a1 603d 244a e4bd 824a 803d 8a29 0bbe
000002c0: fc0d 163e 731e 303d a089 97bd c870 adbd
000002d0: 17d5 76bd 6879 e2bd fe99 aa3d 1eb6 fcbd
000002e0: 932d 923c ad47 dcbd 6be4 3dbd 4095 c03d
000002f0: 2545 e63d 121f 84bc cac8 47be ec77 a2bb
00000300: d085 e63d 1416 e93d c5b6 1abc 463d b9bd
00000310: 6915 4a3d 0193 303c 5548 783d 3d8a 2dbd
00000320: a73e fbbd 00df 113d b02a 80bc 3c73 e33d
00000330: 3fc9 8ebd 8da7 e9bb 3791 d9bd 4861 98ba
00000340: 6a27 b5bd fb37 073d e0b9 4d3e f097 cdbd
00000350: 7b67 7e3d 4147 2a3d 591b 22bd 4870 fe3d
00000360: 480e 223e 7e32 8cbd 74aa 3bbc e1f3 62bd
00000370: a7a3 d1bc 5893 e43d 9df3 03be 013e 30bc
00000380: 334e b73d beb9 d13c 40ac 033e 03dd acbc
00000390: e338 813c 9d2b 00be 9f6c ae3d f97c b5bd
000003a0: edf3 48bd c968 93bc cafe 8ebd d925 21be
000003b0: 9629 263d b68b 0a3e 2268 dabd a660 5b3d
000003c0: f598 08be 7676 fa3d 72aa c93d bbb3 4d3e
000003d0: ced1 853d 8f6e c43c 1d0a 67bd 25de 3cbe
000003e0: 7465 fcbd 0b43 31be be9f cc3d 0723 a2ba
000003f0: a88a f93d 4851 893d 0699 4f3c 56ed ea3b

fc1.bias f4 [128]
0.01980819 -0.014362036 0.025824802 0.030219201 -0.021670224 0.03229878 0.0029211696 -0.0035510703
0.0067998637 -0.020828206 0.032340087 -0.016470201 0.0056726765 -0.025120517 -0.00082260545 0.033584572
-0.018804904 -0.008088073 0.026500221 0.0141722 0.015205601 0.018873915 -0.0024397173 0.009710377
-0.014584934 0.006337067 0.001563237 0.036630835 -0.022555761 -0.0042873435 0.004525017 -0.010721016
0.026755482 0.037854772 -0.009053329 0.008794935 -0.009291036 0.037438445 0.016485494 0.021779472
0.0012091976 0.03187943 0.017178696 -0.020793997 -0.00056886656 -0.0040012547 -0.021834616 -0.022693621
0.021805303 -0.0018341399 -0.022694765 0.008450815 0.02918067 -0.02204118 0.0122449435 -0.008483019
0.012069204 -0.012386677 -0.01749041 0.039244324 0.035762556 -0.006099567 -0.013506186 0.02449165
-0.030469228 -0.0070796628 0.02615916 0.007884831 -0.014031037 0.31288812 0.013470963 -0.018498763
0.012738893 -0.017625626 0.03497897 0.031543322 -0.019530693 0.037557647 0.022330597 -0.018827317
0.0049290224 0.02510587 -0.009626284 -0.025456674 -0.017247697 0.019264594 0.022975804 0.021386188
0.013527635 -0.0057810303 0.02512086 -0.00839469 0.018359866 -0.008952914 0.30414873 0.01430653
0.015296659 0.019906411 0.037073158 -0.004544823 0.010140771 -0.015517646 -0.016871907 0.015139091
0.028439336 -0.0054339585 0.01169776 0.037838273 -0.009996011 0.0077626393 0.028644875 0.01928538
-0.0062520634 -0.019809961 -0.008055954 0.02587745 0.026554396 0.009535858 0.024477197 -0.009159548
-0.01169445 -0.013930056 0.004522576 -0.012204705 0.010648747 -0.013466891 0.009417659 -0.017052716
00000000: c944 a23c bf4e 6bbc 898e d33c 428e f73c
00000010: c185 b1bc ba4b 043d 1871 3f3b 13b9 68bb
00000020: 64d1 de3b ea9f aabc 0a77 043d 84ec 86bc
00000030: dce1 b93b 8bc9 cdbc 1ea4 57ba fa8f 093d
00000040: be0c 9abc d683 04bc fe16 d93c 8432 683c
00000050: ea20 793c 789d 9a3c aae3 1fbb 4618 1f3c
00000060: a6f5 6ebc 2ca7 cf3b 88e5 cc3a 370a 163d
00000070: dcc6 b8bc d87c 8cbb 9846 943b 33a7 2fbc
00000080: 502e db3c 9b0d 1b3d 6a54 14bc a218 103c
00000090: 6e39 18bc 0e59 193d 960c 873c dd6a b23c
000000a0: f07d 9e3a 0194 023d 56ba 8c3c 2c58 aabc
000000b0: fd1f 15ba f51c 83bb 82de b2bc f9e7 b9bc
000000c0: 09a1 b23c 8667 f0ba 5fea b9bc 4a75 0a3c
000000d0: 4d0c ef3c b48f b4bc 049f 483c 5cfc 0abc
000000e0: e9bd 453c 7df1 4abc 0c48 8fbc a8be 203d
000000f0: c27b 123d e0de c7bb 0d49 5dbc b6a2 c83c
00000100: 9a9a f9bc 84fc e7bb bc4b d63c 612f 013c
00000110: 6fe2 65bc df32 a03e 50b5 5c3c b88a 97bc
00000120: cab6 503c 9e63 90bc 1c46 0f3d 9233 013d
00000130: d5fe 9fbc 0cd6 193d a8ee b63c bf3b 9abc
00000140: a383 a13b d3aa cd3c 90b7 1dbc 848a d0bc
00000150: 0b4b 8dbc c8d0 9d3c c137 bc3c 1632 af3c
00000160: 03a3 5d3c cc6e bdbb 43ca cd3c e289 09bc
00000170: 6e67 963c 3eaf 12bc 62b9 9b3e f065 6a3c
00000180: d79e 7a3c c512 a33c 06da 173d bdec 94bb
00000190: 7a25 263c ba3d 7ebc f436 8abc f309 783c
000001a0: 9cf9 e83c 590f b2bb f6a7 3f3c 4efc 1a3d
000001b0: 4fc6 23bc bd5d fe3b a8a8 ea3c 60fc 9d3c
000001c0: 1cde ccbb 8048 a2bc 1ffd 03bc f2fc d33c
000001d0: 9b88 d93c 4a3c 1c3c 6784 c83c ee11 16bc
000001e0: 149a 3fbc e43a 64bc 1e32 943b 3ef6 47bc
000001f0: 1578 2e3c 3ca4 5cbc 864c 1a3c 23b2 8bbc

fc2.weight f4 [1, 128]
-0.28289756 -0.08535925 -0.27198717 -0.24924941 0.018973902 -0.2810863 0.030464647 0.021276202
0.011237653 -0.017839514 -0.2715658 0.020517318 -0.041991305 -0.07290006 0.0074916906 -0.27145016
-0.03488347 0.038106047 -0.24532144 -0.2678169 0.03885955 -0.25265822 0.019017333 0.035885483
0.07309031 -0.26733422 0.00893075 -0.27500015 0.006276898 0.04609836 -0.07510736 0.077908136
-0.2768755 -0.26201704 0.031705923 0.010898947 -0.0034610704 -0.27614835 -0.24323246 -0.276451
0.029207177 -0.24352913 -0.28035563 0.00278534 0.030805454 -0.29027492 -0.008800544 -0.0280044
-0.2543461 -0.0046362346 0.005527757 -0.23546828 -0.2632154 0.013967909 0.07312749 0.048671253
0.04130885 0.07699336 -0.07737103 -0.25623482 -0.248407 -0.24642137 -0.0017076797 -0.25100636
-0.032614075 0.017158017 -0.2533222 0.05949472 0.008845173 0.36503378 -0.2719903 0.00086300075
0.018176062 -0.022180393 -0.27830866 -0.28311354 0.0048793624 -0.24520843 -0.26981297 0.0559413
-0.2482918 -0.27684733 -0.011233643 -0.0824004 -0.012004495 -0.25669584 -0.24532251 -0.26695302
-0.24225193 0.034925826 -0.2796786 0.022479862 -0.2627383 -0.058479518 0.3894387 0.036142446
-0.0009449291 -0.23518433 -0.27046537 0.013518423 -0.059869956 -0.06747831 0.025348082 -0.25287637
-0.26596683 0.0804705 0.056386508 -0.26556647 0.07215544 -0.24174054 -0.2547327 -0.23884585
-0.007972896 -0.071218535 0.016344707 -0.24382736 -0.2563404 -0.28079656 -0.2825445 -0.080944374
-0.024307363 -0.03320041 0.07808435 0.065844454 -0.29204878 0.02872551 -0.24677657 0.05559113
00000000: f3d7 90be d5d0 aebd e741 8bbe 3d3b 7fbe
00000010: 286f 9b3c 8bea 8fbe ff90 f93c 6e4b ae3c
00000020: 221e 383c 2c24 92bc ac0a 8bbe ef13 a83c
00000030: 13ff 2bbd a04c 95bd db7c f53b 84fb 8abe
00000040: f8e1 0ebd 1615 1c3d 8b35 7bbe 4c1f 89be
00000050: 312b 1f3d 6b5c 81be 3dca 9b3c a8fc 123d
00000060: 5fb0 953d 08e0 88be 4852 123c d2cc 8cbe
00000070: 70ae cd3b a2d1 3c3d e3d1 99bd 4d8e 9f3d
00000080: a0c2 8dbe 1927 86be 12de 013d 7f91 323c
00000090: 20d3 62bb 5163 8dbe ee11 79be fc8a 8dbe
000000a0: e443 ef3c b35f 79be c68a 8fbe 408a 363b
000000b0: b85b fc3c ea9e 94be 2830 10bc 7c69 e5bc
000000c0: a739 82be 8eeb 97bb 3022 b53b 991e 71be
000000d0: 2bc4 86be a8d9 643c dec3 953d 825b 473d
000000e0: 7833 293d b2ae 9d3d b474 9ebd 3631 83be
000000f0: 685e 7ebe e255 7cbe 39d4 dfba e883 80be
00000100: 5696 05bd f88e 8c3c 73b3 81be bcb0 733d
00000110: 58eb 103c b5e5 ba3e 5042 8bbe 003b 623a
00000120: f7e5 943c a8b3 b5bc 797e 8ebe 42f4 90be
00000130: 0fe3 9f3b eb17 7bbe ed24 8abe b422 653d
00000140: 3540 7ebe efbe 8dbe 500d 38bc 8ac1 a8bd
00000150: 80ae 44bc a36d 83be d335 7bbe 11ae 88be
00000160: e410 78be 620e 0f3d 0932 8fbe b027 b83c
00000170: a285 86be 3888 6fbd 8264 c73e 1a0a 143d
00000180: 1eb5 77ba 29d4 70be 707a 8abe 607c 5d3c
00000190: 333a 75bd 1132 8abd c8a6 cf3c 0379 81be
000001a0: ce2c 88be b8cd a43d 8af5 663d 54f8 87be
000001b0: 3bc6 933d d58a 77be 536c 82be 0294 74be
000001c0: c0a0 02bc 06db 91bd 56e5 853c e1ad 79be
000001d0: 0d3f 83be 91c4 8fbe aca9 90be 2ac6 a5bd
000001e0: 3c20 c7bc 27fd 07bd b0ea 9f3d 75d9 863d
000001f0: 6b87 95be c351 eb3c ffb2 7cbe 86b3 633d
